exp20p/mnist.model (npz, 333721 bytes, 6 tensors)

l3/b f4 [10]
000000 11 1d fe 3b 42 06 9a bc f9 2a d9 bb fc b1 09 3c
       0.00775493 -0.018801812 -0.006627437 0.008404251
000010 1a ef 42 bd 7f 87 8b 3d 03 76 08 3d fe c6 44 bc
       -0.047591306 0.06812953 0.03331567 -0.012010334
000020 1c 0e 33 bd 9d 77 20 bd
       -0.043714628 -0.039176572

l3/W f4 [10, 100]
000000 d2 5a 42 3d 0b 13 21 3e a6 90 45 bd 3b 9a 1d 3e
       0.047449894 0.1572992 -0.04823365 0.15390866
000010 d9 2f f3 3d 4b f5 54 bc 6f 57 22 3d a0 bd 2e be
       0.118743606 -0.0129979355 0.039634164 -0.17064524
000020 6d 23 9f bd 83 2f 4c 3d f1 08 0a be b7 c7 a9 bd
       -0.07770429 0.04985 -0.13479973 -0.08290046
000030 f9 3d dc bd 71 f2 20 3e 96 02 b1 3d b3 c6 82 bd
       -0.10754008 0.15717484 0.08643071 -0.06385555
000040 64 6a 13 be 0d 86 b5 3d 3f 64 0e 3d 0e f2 4f bd
       -0.14396054 0.08863459 0.03476357 -0.05076795
000050 d1 d4 90 bb 1b b8 b9 3d 30 61 17 be 5a 5b 00 3e
       -0.004419901 0.090683185 -0.14783168 0.12534848
000060 55 15 27 3e d9 cd 8e bc 0f 72 2e bd b3 c7 ef 3d
       0.16316731 -0.01743214 -0.042589244 0.117080115
000070 05 59 81 bb ce d5 28 3c fc 12 8c bc a5 63 01 3d
       -0.0039473795 0.010304881 -0.017098896 0.03158917
000080 bf 60 97 3e 0a e5 1a 3d ca 1c 15 3e b4 ce 02 be
       0.29566 0.037816085 0.14561763 -0.12774163
000090 c9 c0 8f bc 20 a1 31 be fc d3 54 3d e7 e0 13 be
       -0.017547982 -0.1734662 0.051959977 -0.14441262
0000a0 cc 3e 37 be 8c dd f6 bd d9 4d d9 3d f6 d2 8f bd
       -0.17895049 -0.120539755 0.106105514 -0.070226595
0000b0 3f 94 3c bd 58 ba 86 bc bb 62 44 be 9a ed 63 bd
       -0.046039816 -0.016446277 -0.19178288 -0.055646516
0000c0 17 b4 ed bc 99 fe 11 3c 89 e4 76 bd 52 64 02 3e
       -0.029016538 0.0089107985 -0.06027654 0.12733582
0000d0 7e 1f 11 3a ed c0 3c 3d 3b d9 99 bd cc b1 a5 bd
       0.0005536004 0.046082426 -0.075121365 -0.08090553
0000e0 46 e1 97 3c a2 65 9c bd d4 6b d5 bd 9f 65 77 3e
       0.018540036 -0.076365724 -0.10420957 0.24159859
0000f0 9a 15 4e bd a2 31 a3 bd ab 48 46 3d f7 e9 97 bd
       -0.05031357 -0.07968451 0.048409145 -0.07417672
000100 b5 c6 0b bc 16 c9 61 bd 81 6c 9c 3d ef 79 be 3d
       -0.008531262 -0.05512341 0.07637883 0.09300601
000110 d1 dd 3d be bf 12 73 3d 5c b9 dd bd 36 69 17 3e
       -0.18541647 0.05934405 -0.1082637 0.14786229
000120 57 c8 88 3e 02 1f 0a be ad 5c b5 3d 26 eb cd bd
       0.26715347 -0.13488391 0.08855567 -0.10054617
000130 c2 29 13 3e ae 91 e7 3c 74 2d 03 be 09 32 f9 3d
       0.14371398 0.028267708 -0.12810308 0.121677466
000140 f5 94 83 3b da 71 3a be 75 78 03 3d 14 7b 96 bd
       0.00401556 -0.18207493 0.0320973 -0.07347694
000150 64 0a 1a be 8e 81 6a 3c 02 15 bb bc 03 84 e7 bd
       -0.15043026 0.014313115 -0.022837166 -0.11304476
000160 7e 8d 50 3e 8a 93 99 bc e7 6f b3 bd 38 aa e9 bc
       0.20366475 -0.01874711 -0.08761578 -0.02852355
000170 dd 9b fb 3c 05 b6 6a 3d 0c 09 32 be a4 d8 34 3d
       0.03071397 0.057302494 -0.17386264 0.044151917
000180 14 d1 53 bd 7a 27 ed bd a0 f6 ab 3d 20 07 65 bc
       -0.051713064 -0.11579795 0.08396649 -0.0139787495
000190 6f 8f 49 3d 97 32 56 bd 87 a0 a9 3d 7b 87 a8 bb
       0.049209055 -0.05229434 0.08282571 -0.0051431037
0001a0 5d 1d 13 be db 75 c4 bd ab 96 a4 bd a5 1f 9d bc
       -0.1436667 -0.09592792 -0.0803655 -0.019180128
0001b0 f1 4b c8 bc 07 e6 06 bd 84 a2 96 be c5 01 b3 3d
       -0.024450274 -0.032934215 -0.29420865 0.08740572
0001c0 5e d6 23 3e 01 15 0b 3d 19 65 df bd e9 36 9a 3c
       0.15999743 0.033955578 -0.10907955 0.018825011
0001d0 e8 35 08 be ac 7b 1b bd 29 5c cc 3c ec e8 bf bd
       -0.13301814 -0.03795974 0.02494629 -0.09370598
0001e0 68 97 26 be a8 f3 00 be 91 fc 4a 3d c0 58 37 3e
       -0.16268694 -0.12592947 0.049557272 0.17904949
0001f0 58 e9 82 3e e2 0e 43 be 49 c6 06 be ef a5 7f bd
       0.25568652 -0.19048646 -0.13161577 -0.062414106
000200 be 0b 29 be 29 c3 9a bd 06 95 2a be 9d b7 1e be
       -0.16508386 -0.07556755 -0.1665841 -0.1549973
000210 07 d3 a3 bc 2b 97 28 3d 4c 73 38 bd a6 a4 5d 3e
       -0.019998087 0.04115979 -0.04503183 0.2164484
000220 21 f0 8a 3d b1 b2 11 be 4d 5d 97 3e ba 65 80 be
       0.06784082 -0.14228322 0.2956337 -0.2507761
000230 76 cc 86 bc 58 ee 08 be 21 1d 0c bd f4 a7 80 3d
       -0.016454916 -0.13372171 -0.034207467 0.062820345
000240 b2 9b c2 bd 37 4e d6 bd 0d 3f 13 be 10 4f 9c 3d
       -0.09502353 -0.10464137 -0.1437952 0.076322675
000250 0d 34 06 be ed e9 74 bd 5a 00 b2 bc 05 83 d1 3d
       -0.13105793 -0.0597934 -0.021728683 0.10230068
000260 78 69 af 3d a7 66 87 3d 19 6f b9 3b c2 84 1e bd
       0.085650384 0.06611376 0.005658996 -0.038700826
000270 2a 64 89 be bd 15 92 3d 4a d2 dc 3d 27 b8 7f 3d
       -0.26834232 0.071330525 0.10782297 0.06243148
000280 52 a5 a5 3e 5c a7 ed bd 68 3b 80 3e 06 87 cd 3d
       0.32352692 -0.11604187 0.25045323 0.10035519
000290 31 06 ae 3d 25 62 ba 3c 86 d7 f4 3d bf e1 49 3d
       0.08497275 0.022751877 0.1195517 0.049287554
0002a0 e2 fe 9d 3d 9d e3 eb bd f2 74 b0 bc 9c 7c f0 bd
       0.07714631 -0.11518023 -0.021540139 -0.11742517
0002b0 3d 4a f9 bd a0 37 f6 3d bc e1 de 3b 0d 81 36 3b
       -0.12172363 0.120223284 0.006801812 0.0027847916
0002c0 89 a8 c1 3c 70 25 8c bd 7f 3b c0 3c b1 03 31 be
       0.023639934 -0.06843078 0.02346587 -0.17286564
0002d0 7a e8 39 be 0d ae 15 bd ff 6c d4 39 3d e5 9d be
       -0.18155089 -0.03654294 0.00040517 -0.30838957
0002e0 ea 01 07 be 0a b5 aa 3c 31 4d 98 3d 13 8c 62 bc
       -0.13184324 0.02083828 0.07436598 -0.013827342
0002f0 0f ea ba 3d 31 76 57 3d f0 2c ed 3d d4 fb 5f 3d
       0.091266744 0.05260295 0.11580837 0.05468352
000300 0a fe 84 bd 3d 03 54 bd 7e 03 0e 3e 26 e4 3e bd
       -0.064937666 -0.0517609 0.1386852 -0.046604298
000310 3c 0f 16 3d d0 fd 94 3e 65 17 9d 3d a2 a4 6c be
       0.036635622 0.29099894 0.07670478 -0.23109677
000320 d7 cf 9f 3d c3 a4 29 3d 37 21 75 be 69 6c 54 be
       0.07803314 0.041416895 -0.23938452 -0.2074448
000330 b5 2f d2 3b cf e1 83 3d d9 58 07 3c c3 a3 ce bc
       0.0064143785 0.06439554 0.008260929 -0.025224572
000340 57 42 4c 3d 02 45 a6 3c f0 63 6c 3d 9a a5 09 3e
       0.049867954 0.020296577 0.057712495 0.13442078
000350 fb 85 c8 bd 16 74 41 bd a6 e0 b4 3a f6 72 bc bd
       -0.0979118 -0.04722985 0.0013799861 -0.092016146
000360 b9 b5 e8 bd 51 3c 11 be 68 b2 f3 3d 20 a4 ed 3d
       -0.11362786 -0.14183165 0.11899263 0.1160357
000370 c3 ed 45 3d 4e fe a0 3c e8 27 70 bd 2c 0d d5 bb
       0.04832245 0.019652512 -0.058631808 -0.0065018144
000380 eb e9 17 3d f8 4c b7 bc 5c 3f ec bc f0 51 8d 3d
       0.037088316 -0.022375569 -0.028838806 0.06900394
000390 a4 eb ae 3c c0 3f ad 3c 72 cd 54 bd 45 12 93 3d
       0.021352597 0.021148562 -0.05195374 0.07181219
0003a0 d6 b2 66 3d 87 3f 0d be 2d d1 79 be 45 dc cb 3c
       0.056322895 -0.13793765 -0.243962 0.024885306
0003b0 68 54 dd bc a0 25 87 3b b4 97 cd 3b 7e 1b 3d bd
       -0.027017787 0.0041243583 0.006274188 -0.046168797
0003c0 50 c1 99 bd 87 de 7f 3d bc ef c2 3c 82 0c 69 3e
       -0.075075746 0.062468078 0.023795955 0.22758678
0003d0 c0 2e 9d 3e 1a ea 06 be 25 39 3a be fa e5 ac be
       0.3069973 -0.1317524 -0.18185861 -0.33769208
0003e0 da f5 2e bd 37 d1 15 3e 86 ef 10 3c 26 79 23 be
       -0.04271493 0.1463059 0.008846169 -0.15964183
0003f0 a3 9c 2d bd 8b 1c 3e 3d 64 9e 77 be a4 d5 2f be
       -0.04238571 0.04641394 -0.24181515 -0.17171341

l2/b f4 [100]
000000 3a 7e 8f ba e6 42 b6 3d 87 9e be 3c 98 5b df 3c
       -0.0010947653 0.088994786 0.023268951 0.027265355
000010 a4 47 15 3d 35 f3 0a 3d 14 20 fb bb 3a 06 19 3d
       0.036445275 0.033923347 -0.007663736 0.037359454
000020 8c dc 81 bc 3c aa f6 38 ff df 7d 3d 62 4c 08 bc
       -0.015852235 0.00011761903 0.061981197 -0.008318992
000030 0f 9a 93 bc 11 b9 24 3b 5b 04 eb ba 37 c7 5f bc
       -0.018017797 0.0025134722 -0.0017930375 -0.013658336
000040 51 a8 17 3c 04 54 cb 3c 46 92 9a bc 7b 0a 52 bb
       0.009256438 0.024820335 -0.018868577 -0.0032049704
000050 ba 4e 0e bd bd a3 9a 3c aa b4 29 bd e9 94 b2 bc
       -0.03474305 0.018876905 -0.04143206 -0.021799522
000060 7f 3b 5f 39 c5 13 62 3d e2 af 2e 3d 30 14 96 3d
       0.00021289101 0.055194635 0.042648204 0.07328069
000070 5c 41 c9 ba 26 12 01 bc 4d bf 1e bd 2a b9 11 3d
       -0.0015354562 -0.007877862 -0.038756657 0.035576977
000080 9f 4a 21 bd 1c b8 d2 3c a2 45 63 3d 11 67 00 bc
       -0.039377805 0.025722556 0.05548633 -0.007837073
000090 49 c1 e0 3c 12 9f 51 3d 2a 13 0b bd 14 f7 1f 3d
       0.027435916 0.051177092 -0.033953823 0.03905399
0000a0 f9 c4 ee bc 6a ba 3e bc 8c a0 7c 3d 23 73 13 3c
       -0.029146658 -0.011641124 0.061676547 0.008999619
0000b0 26 10 dd bb 8e 11 a2 bc 31 83 63 3d 28 37 3e 3d
       -0.00674631 -0.019783761 0.055545036 0.04643932
0000c0 88 71 e1 bc bc da c9 bb 66 e4 80 bc 2f 6b 99 3d
       -0.027519956 -0.0061601084 -0.015733909 0.07491147
0000d0 03 6e 2e 3c 00 00 00 00 25 59 41 3d c9 48 1b 3d
       0.010646346 0.0 0.047204155 0.03791121
0000e0 9b ad 1e bc f7 36 12 3d 1e af 27 bd 49 c2 b8 bb
       -0.009684945 0.03569695 -0.04093849 -0.005638395
0000f0 e7 11 2e 3b a6 61 24 3d 56 ba 88 3d 58 c8 3a 3d
       0.0026560964 0.040132187 0.06676166 0.04560122
000100 28 20 9f bc 19 f7 c8 3d 5b 66 99 bc c1 c7 a5 3a
       -0.019424513 0.09812755 -0.018725565 0.0012648032
000110 de 0d 1e bc 7b b5 2a bd fc 27 c1 3c 50 a3 50 3c
       -0.009646861 -0.04167698 0.023578636 0.012734249
000120 bb 61 1d bb 53 8f 37 bd 6e 9d fd bc de 84 de 3c
       -0.002401455 -0.04481442 -0.030958857 0.027162965
000130 ff 3a 38 3d 64 c8 d3 bb a6 72 cc bc c2 8d 1a bb
       0.044978138 -0.0064630974 -0.024957012 -0.002358303
000140 17 ab 36 3c 6f 4a 37 3b bf 33 9b ba 47 ec 9d bb
       0.011149189 0.002796795 -0.0011840983 -0.004819426
000150 d5 0d 0a 3d 86 5e 9c 3c a8 76 95 bc e0 8e 53 bd
       0.033704598 0.019088041 -0.018245056 -0.051649928
000160 00 42 f8 3c ae 43 93 bc 62 c0 60 3d e2 7c 3b 3d
       0.030304909 -0.017976608 0.05487097 0.045773394
000170 d6 3c da bc 6c c8 d7 bc a6 8a 70 3d 2a 47 df bc
       -0.026640337 -0.026340686 0.058725975 -0.027255613
000180 df 49 35 3d 78 a5 85 3a d1 00 0a 3c 4d 3c ad 3d
       0.044259902 0.0010196408 0.008423046 0.08458767

l2/W f4 [100, 100]
000000 8d 3c fd bd ed 62 4d 3b 1a a4 bf bd fe a2 83 3e
       -0.12365065 0.0031339482 -0.09357472 0.2571029
000010 bb cd 16 3e 35 b0 81 3e 67 40 24 bd d5 77 03 bd
       0.14726917 0.25329748 -0.04010048 -0.032096703
000020 03 8e a2 3d 80 be 16 be 10 2e 20 be 17 58 1e be
       0.07937243 -0.14721107 -0.15642571 -0.15463291
000030 05 46 95 bd 56 71 ee 3b f7 23 b1 3d ee ad da 3c
       -0.07288746 0.0072766943 0.08649438 0.026694264
000040 6a 6d 37 3c 3b 7a dc 3d bf 3a b4 bd c0 68 1f 3d
       0.01119552 0.10765501 -0.088002674 0.038918257
000050 df 33 9a bc 6c 28 5c 3d e1 0a 32 3d 72 da da bc
       -0.018823562 0.053749487 0.043467406 -0.026715491
000060 94 78 80 bc bd 16 2f 3e 61 44 58 bd 8f bc 0b be
       -0.015682496 0.17098518 -0.052799586 -0.13646148
000070 3f 7e 4e 3e 31 82 4c bd 10 f2 9d 3d a2 9f a6 bc
       0.20165347 -0.049928848 0.077121854 -0.02033979
000080 8a e1 24 bd e9 a1 35 3e 32 a3 41 3d ee c6 e2 bd
       -0.040254153 0.17737545 0.047274776 -0.11073099
000090 4d 08 b3 3d 6d b0 4e 3d 44 b3 a4 bd 7e e0 1b 3d
       0.087418176 0.05046122 -0.08042005 0.03805589
0000a0 22 ce 0a be c5 3e ed 3d ff 05 4b 3e 9a 94 f0 bd
       -0.13555196 0.11584238 0.19826506 -0.117470935
0000b0 25 61 76 bc fe ce 16 3b 8d 5d df 3e 8e 47 f6 3c
       -0.0150378095 0.002301156 0.4362606 0.030063417
0000c0 09 1f 84 3d b3 71 10 bc 6f de 1d be d9 25 98 be
       0.06451232 -0.0088161705 -0.15416883 -0.29716375
0000d0 8e 75 82 bd 92 90 be bd 4a 9b d1 bd 73 c7 48 bd
       -0.06370078 -0.09304918 -0.10234697 -0.049018335
0000e0 41 02 dd 3c 0e c9 9e bd 73 21 84 3d 15 e9 44 3d
       0.026978614 -0.07753192 0.064516924 0.048073847
0000f0 69 60 19 be a8 72 2f 3a 79 80 b7 3d 72 72 99 be
       -0.14978184 0.00066928053 0.08960051 -0.29970127
000100 45 40 86 3d 7d 38 3e 3d 3c 26 5c bd ae a9 95 3d
       0.06555227 0.04644059 -0.0537474 0.073077545
000110 46 53 ab 3b 95 66 cd bc 90 29 dd 3d 28 d3 79 bd
       0.005228433 -0.025073329 0.10798943 -0.06099239
000120 6b 54 0b 3e 1d 56 28 be 51 62 26 3d e4 63 ef 3d
       0.13606422 -0.164391 0.040621106 0.116889745
000130 b3 c5 ca 3d c6 a1 74 3d 4b ac 05 3e bc cf ce 3d
       0.099009894 0.05972459 0.13054006 0.10098216
000140 51 b4 fe 3d 1c 3a bf 3d cb 44 44 be fc 88 2b 3d
       0.124367364 0.09337255 -0.19166867 0.041878685
000150 3a 99 d0 3b 1f e0 ea bd d4 5a b4 3d c6 46 2a bd
       0.0063659223 -0.11468529 0.088063866 -0.0415714
000160 03 cf c3 3d b9 b9 86 3c 94 01 12 3d e5 24 76 3c
       0.09560969 0.016445981 0.035646036 0.015023445
000170 bf 29 85 3b ef 99 a3 bd 61 d1 28 3e 03 f1 10 3d
       0.0040638144 -0.07988345 0.16486122 0.035386097
000180 ed 3f 02 3c 1d df 84 3e b5 a4 8b bd 77 83 54 3e
       0.007949811 0.25951472 -0.06818525 0.20753275
000190 56 10 bc bd 8d ef c0 3c c5 2d a5 3e f0 0d 93 3e
       -0.09182803 0.023551727 0.32261482 0.2872157
0001a0 6c ab 13 be 6e 00 91 3c 03 b5 7a bd 8d 58 86 bc
       -0.14420861 0.0177004 -0.061207782 -0.016399646
0001b0 10 9d ef 3c 7c b5 92 bd 3b 7c a7 3d 9a f7 0f bd
       0.029249698 -0.07163522 0.08177992 -0.03514824
0001c0 c4 85 8f 3d 9d b0 fd 3d bb 47 b5 3d 1e fe b8 bc
       0.07007936 0.12387202 0.08851572 -0.02258211
0001d0 97 8f 2f bd 07 6d 10 bd 7f 0a 0e 3d e8 81 57 bd
       -0.042861547 -0.035260227 0.03467798 -0.052614123
0001e0 85 d9 80 bc 5c 95 a1 bc ff b7 10 3e 20 5e fe 3d
       -0.015728721 -0.01972454 0.14132689 0.12420297
0001f0 2f 5c 30 bd a0 a5 ae 3d e0 0e 8f 3e 95 0c 0c be
       -0.043056663 0.08527684 0.27941036 -0.13676675
000200 7b e3 33 be 61 61 e1 3c 1c cb 17 be 0f 7e 87 bd
       -0.17567246 0.027512254 -0.14823574 -0.06615841
000210 28 ea c3 3d 4b bd a0 3e 7f cf db 3d 61 69 a2 bd
       0.09566146 0.3139442 0.10732936 -0.07930256
000220 5e e5 5b 3e b4 20 61 bd 80 d0 29 3e 25 24 33 be
       0.21474215 -0.05496283 0.16583443 -0.17494257
000230 88 bc 3c 3d 26 4a 3a 3e 7a 9f 4a bc fb db df bd
       0.046078235 0.18192348 -0.012367124 -0.1093063
000240 d3 f7 2c be 52 25 c0 3d b7 20 9c bc 79 38 44 be
       -0.16891412 0.09382118 -0.019058568 -0.19162168
000250 59 31 36 3c 8b 8f 8b 3c ca 17 67 bc 45 f2 d0 bc
       0.011120164 0.01703622 -0.014104793 -0.025506148
000260 e9 6a 3d be 20 e2 50 bd c1 d7 f4 3d 56 29 99 3d
       -0.18497814 -0.0509969 0.11955214 0.07478587
000270 14 da 1b bd 6d 61 57 bd 89 df 86 bc e3 d9 20 be
       -0.038049772 -0.052583147 -0.016464012 -0.15708117
000280 46 05 0d 3d b2 58 07 be 5d 31 98 bd 99 f1 e2 3d
       0.034428857 -0.13217428 -0.0743129 0.11081237
000290 fd 55 a4 bd 89 b0 04 bd ce 12 d7 b9 aa f2 d4 bd
       -0.080242135 -0.03239492 -0.00041022006 -0.10397847
0002a0 ee f4 0c 3e 99 5b 61 bd d3 1b 77 bb c7 05 0c be
       0.13765308 -0.055018995 -0.0037705794 -0.13674079
0002b0 2b 06 cc bd 11 8d 7b 3d 20 03 8f bd a7 9b d5 bd
       -0.09962114 0.06141383 -0.06983018 -0.10430079
0002c0 bc 6b 8f ba 0f 4e ea 3d 29 c6 af 3c 44 6a e5 3a
       -0.0010942142 0.1144067 0.021456795 0.0017502983
0002d0 5a 0b 0d 3e 01 39 ff 3c 1f 18 8a bd c1 1a 54 bd
       0.13773862 0.031155111 -0.06742882 -0.051783327
0002e0 b0 03 36 3c 2a 37 88 bd 93 96 43 3d 84 63 fa 3c
       0.011109278 -0.06651147 0.04775102 0.03056503
0002f0 5c fa 14 3e e6 98 d8 bc 39 53 b3 3c 1c 79 af bd
       0.1454863 -0.026440095 0.02189027 -0.08568022
000300 51 d4 1e 3d 01 c0 d2 3d 13 8c d1 bc b9 b2 b9 3d
       0.0387767 0.10290528 -0.025579488 0.09067292
000310 e2 67 e4 3c 2c bd 58 bd 23 5f 88 3c 69 d6 d1 bd
       0.027881566 -0.052914783 0.016646927 -0.102459736
000320 bd 34 b8 3b 28 42 68 be 99 60 1d bd 78 14 52 3d
       0.0056215213 -0.22681487 -0.0384222 0.05128905
000330 4c c8 f1 3d 40 4d e1 3d b4 3a e1 3c 8e 69 19 3e
       0.11805782 0.110010624 0.027493812 0.14981672
000340 b1 ee 1a bd df 39 8d 3e 2d 52 28 3e 71 4e f4 3d
       -0.03782529 0.27583215 0.16437598 0.11929024
000350 21 09 8d bd 15 5c ee ba df 0b a4 be 13 c3 46 bd
       -0.06886507 -0.0018185402 -0.32040307 -0.04852588
000360 51 bc b9 3d b4 82 27 bd f7 78 6a 3d 37 f4 7b be
       0.09069122 -0.040896133 0.057244267 -0.2460488
000370 df 98 24 3e ef c9 57 3d 90 04 6d bb 4e a9 49 3d
       0.1607394 0.052682813 -0.003616605 0.049233727
000380 f9 7e 1f 3e e0 34 29 bd e5 4a 1e 3e 96 80 85 bd
       0.1557578 -0.04131019 0.15458257 -0.065186664
000390 c6 3d dd bb 4c 97 1c bc e0 d9 3f 3e 8d ea a9 bc
       -0.0067517487 -0.009557556 0.18735456 -0.020741725
0003a0 c0 84 49 3d fe 30 9d 3d 47 4a 0c 3b 90 b0 ce 3b
       0.049198866 0.0767536 0.0021406577 0.006307669
0003b0 a9 77 03 3c 4a 43 62 be 15 69 ce 3d 6f ed 3d bc
       0.008024135 -0.22095981 0.100786366 -0.011592253
0003c0 49 a8 1e bb 0b 9e fb 3d e0 37 db 3d 68 4c ba 3d
       -0.0024209192 0.12286004 0.10704017 0.090966046
0003d0 a7 51 d6 bd 0e 6e b5 bd c7 83 af bd 1b c3 08 3e
       -0.10464793 -0.08858882 -0.085700564 0.13355677
0003e0 17 ad 55 bd 53 eb bc 3d 3e a2 b8 3d 3a 95 b1 3c
       -0.052167024 0.09224572 0.0901532 0.021677602
0003f0 4c d2 a6 3b d8 bb 53 be e7 50 5b bd 31 46 f6 bb
       0.0050909873 -0.20677125 -0.05354395 -0.0075156917

l1/b f4 [100]
000000 71 5d 03 bd 51 8f 97 bc bf 89 a5 3d 55 af f2 3b
       -0.032071535 -0.018500956 0.080829136 0.007406155
000010 ad 0c 75 3c af c4 72 3d 0d 9d 86 bc b7 6c 0b 3d
       0.014956635 0.059269603 -0.01643231 0.034039225
000020 99 06 e8 bc f0 23 c8 3c 40 06 90 bc 2e 29 49 3c
       -0.028323459 0.024431199 -0.017581105 0.012277884
000030 1a 57 71 3d 15 8d 07 3d 90 de 92 3d 55 db 74 3d
       0.058920957 0.03309353 0.07171357 0.059779484
000040 c6 32 f3 bb a0 0f b5 3d 8e 3e 5f 3c 79 a4 8c 3c
       -0.007421824 0.08840871 0.013625754 0.01716827
000050 4a ed d9 3d 35 46 7c bd a0 6d 13 3d c5 38 00 3e
       0.106409624 -0.061590392 0.03599322 0.12521656
000060 78 92 65 bd 5e 53 9e bc 7d 09 91 3d 9f 4e 24 3d
       -0.056047887 -0.019326862 0.07081888 0.04011404
000070 4d a6 af 3b e6 f3 b7 bc 29 6b c2 bc af 5f 24 b9
       0.005360401 -0.022455167 -0.023732739 -0.00015675904
000080 2f d7 9b 3c 27 16 5a 3d 10 b3 65 3c f3 52 23 3d
       0.019023506 0.053243782 0.014019743 0.03987403
000090 5b ee ac 3d 4f 8b f0 bc 49 43 83 3c 23 e0 2f bc
       0.084439 -0.029363303 0.016023295 -0.010734591
0000a0 2e 4e 85 bc 6d 41 c4 3d 00 53 f4 bc 87 ba 36 bd
       -0.01627263 0.095827915 -0.029824734 -0.04461148
0000b0 65 4d 32 3d 7f f6 93 3d 19 ae 03 3c 00 40 29 bd
       0.04353084 0.0722475 0.008037114 -0.0413208
0000c0 e6 f8 03 3d 31 2b 94 bb 3c 99 9f ba 84 ba 14 3d
       0.03221979 -0.0045217504 -0.0012176405 0.036310688
0000d0 3f c0 f0 3c 4f a2 2f 3d 04 99 11 3d 87 4e 1b 3d
       0.029388545 0.0428794 0.035546318 0.037916686
0000e0 9e 9c 2f 3a 12 5f 5f bc 89 01 33 bd 97 31 69 bb
       0.0006699058 -0.013633506 -0.043702636 -0.0035582536
0000f0 a1 81 57 3d 58 a5 fb 3a d4 76 41 3d b1 ac 65 bc
       0.052613858 0.0019199057 0.047232464 -0.014018224
000100 b3 df ad 3c 0c b5 38 3d 76 3d 24 3d 65 ac 0f 3d
       0.021224832 0.045094535 0.040097676 0.035076518
000110 97 3c 0f 3d 85 33 5f 3c 61 99 8f 3d 56 1a de 3c
       0.034969892 0.013623123 0.070116766 0.027112167
000120 b9 eb d2 3b f0 e3 a1 3d f0 38 ec 3c 0f a1 dd bc
       0.0064367917 0.07904804 0.028835744 -0.027054338
000130 df 5c 06 3d 10 9a e6 bb 41 77 a1 3d 17 29 1c 3d
       0.032803413 -0.0070374086 0.07884074 0.038125124
000140 24 1f 2c 3d 47 5f 6b 3c 64 77 c4 bc 78 d2 2d bd
       0.042021886 0.014365978 -0.023982711 -0.042437047
000150 c3 94 aa 3c 99 0a 43 3d 99 d9 52 3c 9c ed 8f 3d
       0.020822888 0.04761753 0.012869262 0.07027742
000160 42 40 ab 3d 47 38 12 bd df e3 2a bd 68 b1 29 bd
       0.083618656 -0.0356982 -0.04172122 -0.041428953
000170 51 c3 db ba 02 a2 04 3d 78 50 4b 3b de 0d 75 3d
       -0.0016766583 0.032381065 0.0031023305 0.059827678
000180 52 19 94 3c 1b e9 85 3b 8c 54 68 bd 20 ff 58 bd
       0.01807848 0.004086626 -0.056721255 -0.05297768

l1/W f4 [100, 784]
000000 c5 45 6d bd d5 1f a1 bb 01 1a 26 3d 74 93 66 3a
       -0.057927866 -0.0049171248 0.040552143 0.0008795776
000010 b9 d8 ad ba 04 93 5e 3d d5 d7 84 3d e4 a5 df 3d
       -0.0013263441 0.054339424 0.06486479 0.10920313
000020 a5 46 14 3d d2 a9 30 3d 7a f4 c6 3d 5d 3a b7 3d
       0.036200184 0.043130703 0.09714599 0.08946679
000030 7c fd 0a bc 77 05 88 3d 61 11 3d 3d 51 18 20 3d
       -0.008483287 0.06641667 0.046159152 0.03908569
000040 50 96 b0 3d fe b6 f3 3d 5e 11 41 3d 1b c9 90 3d
       0.0862242 0.11900137 0.047135703 0.07069608
000050 af d7 2c 3d 5c 74 e7 3c 86 89 f7 3c 82 b3 fc bb
       0.04219788 0.028253727 0.030216943 -0.0077118287
000060 0a 9a 16 bc e4 88 34 bd 92 95 7c bc e0 5a 67 bb
       -0.009191999 -0.04407586 -0.01541652 -0.0035301968
000070 3d b6 a2 3c 95 14 82 3b 6f a4 89 3b 32 5e 17 bc
       0.019862289 0.0039697387 0.00420051 -0.0092387665
000080 67 6f 14 bd e4 7a 05 bc be 0e cf bb 44 84 d0 bb
       -0.036239054 -0.008146975 -0.006318896 -0.0063634235
000090 41 5a 1d bd 33 c4 ec 3c f9 12 56 3d 6f f4 bf 3d
       -0.03841615 0.028902149 0.052264187 0.09372794
0000a0 0a f3 ae 3c d9 53 54 3d cf 64 aa 3d e7 c4 1b 3d
       0.021356124 0.051837776 0.08320009 0.038029578
0000b0 d9 75 b9 3d 05 17 d8 3d 06 07 a7 3d 46 27 57 3d
       0.09055681 0.105512656 0.081556365 0.05252769
0000c0 22 81 78 bb fa e0 2d 3d 5e af bf 3b 44 c2 a8 bc
       -0.0037918766 0.042450882 0.005849763 -0.020600446
0000d0 22 e2 d5 bc 2c 39 44 bd 94 c7 cf 3c 24 5d 00 3d
       -0.026108805 -0.047906086 0.025363721 0.031338826
0000e0 7d 5a de 3c 50 f4 11 bd 94 bd 03 bd da 7b de bb
       0.027142758 -0.035633385 -0.032163218 -0.0067896666
0000f0 ce 73 8a ba 99 6c 47 bd f7 aa 41 bd 22 ec 2d bc
       -0.0010563077 -0.04868755 -0.047282185 -0.0106153805
000100 4a e1 13 bd 9c ca 91 bc a5 36 25 bd 8a 13 38 bd
       -0.036103524 -0.017796807 -0.040335316 -0.04494051
000110 3f 77 c7 3b d5 67 0b 3d aa 4b 1c 3d c8 bf 05 bd
       0.0060872133 0.03403457 0.038158096 -0.0326536
000120 1a 53 a5 3c 5a 75 99 bb 8f db c6 3c d0 e6 88 bc
       0.020181227 -0.004683179 0.024274616 -0.016711622
000130 4a 92 e4 3c be 9f 33 3c bb 55 5a bd b9 72 7c bd
       0.027901787 0.0109633785 -0.053304415 -0.061632846
000140 21 58 85 bd f3 33 a6 bd 77 ac e6 bc 7d 52 1a bc
       -0.0651095 -0.08115377 -0.02815841 -0.009419081
000150 34 78 a8 bb 6e e1 ef 3b d3 52 55 bc 25 c0 7b bd
       -0.0051412825 0.0073205745 -0.013020235 -0.06146254
000160 4a 04 11 bd 6d c1 29 bd f7 89 48 bd 5f bc 84 bd
       -0.03540448 -0.04144423 -0.0489597 -0.064812414
000170 d2 79 04 bd ed ff b3 bc fa ee c0 3d d1 78 8f 3c
       -0.03234274 -0.02197262 0.09420581 0.017513664
000180 ac b2 28 bd 78 7f c7 3c 57 19 36 3d 14 b4 98 3c
       -0.04118602 0.024352774 0.04445776 0.018640555
000190 d5 27 10 bc c0 fd 5c 3d 5f a1 50 3d 53 16 c2 bc
       -0.008798559 0.053952932 0.050935145 -0.023692286
0001a0 2a b6 ce bc 37 af be bd 98 33 fe 3b 99 4c 27 3b
       -0.025233347 -0.09310763 0.0077576153 0.0025527833
0001b0 69 3f b5 bc f1 3d 20 3d 43 54 51 bc ee 2f 9f bd
       -0.022124963 0.039121572 -0.012776437 -0.07772814
0001c0 2b 86 a1 3c 40 ac 81 3b 5a c1 aa 3c d5 d2 bb bd
       0.019717297 0.0039573014 0.02084415 -0.091710724
0001d0 90 3b 1f bb cc 48 9d 3c 43 9f 5e bd 0a d8 de bc
       -0.0024296977 0.019199751 -0.054351103 -0.027202625
0001e0 d3 83 80 bd 9d 2f a0 3c 59 37 81 3d 3c 71 ec 3d
       -0.062751435 0.019553954 0.06309385 0.11545035
0001f0 4f d4 9f 3c 49 67 c6 3d 35 e4 d3 3c 45 e7 6a 3d
       0.019510416 0.09687669 0.025865654 0.057349462
000200 d2 09 7f bd 2a e5 bc 3c c7 9e 9a 3b 03 46 a0 3c
       -0.062265225 0.023058493 0.0047186348 0.019564634
000210 16 f1 75 bd 76 24 1f bd d2 49 25 bc 43 c3 36 bd
       -0.06004437 -0.03885313 -0.010088401 -0.04461981
000220 f7 96 18 bd f2 a4 87 bd 59 32 27 bd 11 95 ea 3c
       -0.037253346 -0.06623258 -0.0408195 0.028635534
000230 e4 8a 81 bd 7e b8 d2 3c 11 a3 3c 3b dc 2f 52 bd
       -0.063253194 0.025722738 0.0028783719 -0.051315174
000240 82 df 80 3b a1 98 19 bd 83 c7 cc bd d9 53 8f 3c
       0.003932894 -0.037499074 -0.09998991 0.017496036
000250 e9 54 72 3d 85 cf 80 3c d4 9b 76 3d 21 f2 07 3d
       0.059163008 0.015723953 0.060207203 0.033189896
000260 3a 65 0d 3d 12 8e eb 3d 7e a2 2d bb 3e 4a e8 3c
       0.034520365 0.11501707 -0.0026494558 0.028355714
000270 9a d3 7b 3d 35 8c 9e 3c ed e1 ab 3c 6b 6e ee 3c
       0.061481096 0.019353965 0.020981753 0.029105386
000280 2d f9 5f bc f4 b6 f1 bc a0 66 34 bd 1e f4 eb bc
       -0.013670248 -0.029506184 -0.044043183 -0.028802928
000290 5c d8 52 bd 99 cb 51 bc e8 30 18 bd 62 5e 19 3d
       -0.051475868 -0.012804889 -0.037156016 0.037443526
0002a0 a8 3a 9c 3c 05 1f 26 bd 4a 7b b9 3c 5f 9f d1 bc
       0.019070938 -0.040556926 0.022641797 -0.02558869
0002b0 94 56 2a bb e5 57 b0 bc 69 e1 78 bd 9a 9f 46 bd
       -0.0025991546 -0.021526286 -0.060761843 -0.04849205
0002c0 cd c8 93 3c f5 46 db bb f4 be 56 3d da 0d fe bc
       0.018040085 -0.0066918083 0.0524282 -0.031012464
0002d0 11 30 ea 3b 6c 72 dd 3c cc 41 e9 3c 41 b2 78 3c
       0.0071468432 0.0270321 0.028473757 0.015179218
0002e0 73 83 2d 3d c4 99 00 3d 00 80 d5 3c 91 e5 91 3d
       0.042361688 0.031396642 0.026062012 0.071238644
0002f0 8f 81 cd bc 96 33 ab bc 7d 17 5e bc ba e8 50 bd
       -0.025086192 -0.020898622 -0.013555405 -0.051003195
000300 29 f3 a7 bd 66 6f 39 bd be b8 7d bd fc 3c 57 bd
       -0.08200676 -0.045272253 -0.061943762 -0.052548394
000310 38 b8 93 3c ee a8 2a bb 2c f3 8d bd a4 20 07 bc
       0.018032178 -0.0026040631 -0.06931147 -0.008247528
000320 4a 2b 87 bd 3e 71 cd bd 9b 6c 20 bd 42 0c 90 bd
       -0.066000536 -0.10031365 -0.039166074 -0.07033588
000330 a5 05 6e bc c1 8c a2 3b c7 69 c1 bc 77 60 92 3d
       -0.014527713 0.004960627 -0.023610009 0.071473055
000340 06 c9 54 3c 42 f0 07 bd 84 d5 f8 3b b5 64 e3 3c
       0.012987381 -0.033188112 0.0075938124 0.027757982
000350 f8 45 f3 3c ee a8 c4 3c 17 d1 a1 bb 96 9b 50 bb
       0.02969645 0.024006333 -0.0049382555 -0.0031831018
000360 9e 81 21 bd 47 56 39 bd b0 95 7a bc 96 2e ae bb
       -0.039430253 -0.045248296 -0.015294477 -0.005315612
000370 aa 34 58 bd e4 6b 2f bc 66 b7 7f bc b8 ed b1 3d
       -0.0527846 -0.0107068755 -0.01560769 0.086879194
000380 fb 91 e7 bc 47 1f 54 bd b6 f6 4b bc 55 92 83 3b
       -0.028267851 -0.05178764 -0.012448957 0.004015247
000390 79 1f 66 bd 89 33 c4 3b f8 0e 43 bd 85 e9 13 3d
       -0.05618236 0.005987589 -0.047621697 0.036111373
0003a0 d7 30 7e bc 3a 35 36 bd 1e 00 ea 3c 2c 24 cf bc
       -0.015514574 -0.044484355 0.028564509 -0.025285803
0003b0 41 45 2c 3c 14 ed 78 3d 5e b9 fb bc 6c 08 50 3d
       0.010514558 0.06077297 -0.030728038 0.05078928
0003c0 e6 c6 53 3d fa 64 e2 3c 8c f9 1e 3c e9 ae b9 bc
       0.051703356 0.02763604 0.009703051 -0.022666411
0003d0 52 03 d1 bb f2 17 92 bd f2 4f 4f bd 35 3e cc bc
       -0.0063785696 -0.071334735 -0.05061335 -0.024932006
0003e0 0b 2b 66 bd 18 11 5e bc 54 7e 37 bc 50 23 cf 3b
       -0.056193393 -0.01355388 -0.011199553 0.0063213482
0003f0 f6 65 09 3d fc 3a 7b 3c 7f dc 50 bd 56 be af bd
       0.033544503 0.015333887 -0.05099153 -0.085812256
